…
m","text":["\n"],"name":"stderr"}]},{"cell_type":"markdown","metadata":{"id":"BhzpMk8_K8jb"},"source":["### Evaluation"]},{"cell_type":"code","metadata":{"colab":{"base_uri":"https://localhost:8080/"},"id":"EKHCfVlESjEi","executionInfo":{"status":"ok","timestamp":1620747955447,"user_tz":240,"elapsed":574,"user":{"displayName":"Lakshmi Menon","photoUrl":"","userId":"12696212601561821198"}},"outputId":"4c5e55f4-bece-463f-d02e-d380da00fe47"},"source":["model.to('cpu')"],"execution_count":27,"outputs":[{"output_type":"execute_result","data":{"text/plain":["T5ForConditionalGeneration(\n","  (shared): Embedding(32128, 512)\n","  (encoder): T5Stack(\n","    (embed_tokens): Embedding(32128, 512)\n","    (block): ModuleList(\n","      (0): T5Block(\n","        (layer): ModuleList(\n","          (0): T5LayerSelfAttention(\n","            (SelfAttention): T5Attention(\n","              (q): Linear(in_features=512, out_features=512, bias=False)\n","              (k): Linear(in_features=512, out_features=512, bias=False)\n","              (v): Linear(in_features=512, out_features=512, bias=False)\n","              (o): Linear(in_features=512, out_features=512, bias=False)\n","              (relative_attention_bias): Embedding(32, 8)\n","            )\n","            (layer_norm): T5LayerNorm()\n","            (dropout): Dropout(p=0.1, inplace=False)\n","          )\n","          (1): T5LayerFF(\n","            (DenseReluDense): T5DenseReluDense(\n","              (wi): Linear(in_features=512, out_features=2048, bias=False)\n","              (wo): Linear(in_features=2048, out_features=512, bias=False)\n","              (dropout): Dropout(p=0.1, inplace=False)\n","            )\n","            (layer_norm): T5LayerNorm()\n","            (dropout): Dropout(p=0.1, inplace=False)\n","          )\n","        )\n","      )\n","      (1): T5Block(\n","        (layer): ModuleList(\n","          (0): T5LayerSelfAttention(\n","            (SelfAttention): T5Attention(\n","              (q): Linear(in_features=512, out_features=512, bias=False)\n","              (k): Linear(in_features=512, out_features=512, bias=False)\n","              (v): Linear(in_features=512, out_features=512, bias=False)\n","              (o): Linear(in_features=512, out_features=512, bias=False)\n","            )\n","            (layer_norm): T5LayerNorm()\n","            (dropout): Dropout(p=0.1, inplace=False)\n","          )\n","          (1): T5LayerFF(\n","            (DenseReluDense): T5DenseReluDense(\n","              (wi): Linear(in_features=512, out_features=2048, bias=False)\n","              (wo): Linear(in_features=2048, out_features=512, bias=False)\n","              (dropout): Dropout(p=0.1, inplace=False)\n","            )\n","            (layer_norm): T5LayerNorm()\n","            (dropout): Dropout(p=0.1, inplace=False)\n","          )\n","        )\n","      )\n","      (2): T5Block(\n","        (layer): ModuleList(\n","          (0): T5LayerSelfAttention(\n","            (SelfAttention): T5Attention(\n","              (q): Linear(in_features=512, out_features=512, bias=False)\n","              (k): Linear(in_features=512, out_features=512, bias=False)\n","              (v): Linear(in_features=512, out_features=512, bias=False)\n","              (o): Linear(in_features=512, out_features=512, bias=False)\n","            )\n","            (layer_norm): T5LayerNorm()\n","            (dropout): Dropout(p=0.1, inplace=False)\n","          )\n","          (1): T5LayerFF(\n","            (DenseReluDense): T5DenseReluDense(\n","              (wi): Linear(in_features=512, out_features=2048, bias=False)\n","              (wo): Linear(in_features=2048, out_features=512, bias=False)\n","              (dropout): Dropout(p=0.1, inplace=False)\n","            )\n","            (layer_norm): T5LayerNorm()\n","            (dropout): Dropout(p=0.1, inplace=False)\n","          )\n","        )\n","      )\n","      (3): T5Block(\n","        (layer): ModuleList(\n","          (0): T5LayerSelfAttention(\n","            (SelfAttention): T5Attention(\n","              (q): Linear(in_features=512, out_features=512, bias=False)\n","              (k): Linear(in_features=512, out_features=512, bias=False)\n","              (v): Linear(in_features=512, out_features=512, bias=False)\n","              (o): Linear(in_features=512, out_features=512, bias=False)\n","            )\n","            (layer_norm): T5LayerNorm()\n","            (dropout): Dropout(p=0.1, inplace=False)\n","          )\n","          (1): T5LayerFF(\n","            (DenseReluDense): T5DenseReluDense(\n","              (wi): Linear(in_features=512, out_features=2048, bias=False)\n","              (wo): Linear(in_features=2048, out_features=512, bias=False)\n","              (dropout): Dropout(p=0.1, inplace=False)\n","            )\n","            (layer_norm): T5LayerNorm()\n","            (dropout): Dropout(p=0.1, inplace=False)\n","          )\n","        )\n","      )\n","      (4): T5Block(\n","        (layer): ModuleList(\n","          (0): T5LayerSelfAttention(\n","            (SelfAttention): T5Attention(\n","              (q): Linear(in_features=512, out_features=512, bias=False)\n","              (k): Linear(in_features=512, out_features=512, bias=False)\n","              (v): Linear(in_features=512, out_features=512, bias=False)\n","              (o): Linear(in_features=512, out_features=512, bias=False)\n","            )\n","            (layer_norm): T5LayerNorm()\n","            (dropout): Dropout(p=0.1, inplace=False)\n","          )\n","          (1): T5LayerFF(\n","            (DenseReluDense): T5DenseReluDense(\n","              (wi): Linear(in_features=512, out_features=2048, bias=False)\n","              (wo): Linear(in_features=2048, out_features=512, bias=False)\n","              (dropout): Dropout(p=0.1, inplace=False)\n","            )\n","            (layer_norm): T5LayerNorm()\n","            (dropout): Dropout(p=0.1, inplace=False)\n","          )\n","        )\n","      )\n","      (5): T5Block(\n","        (layer): ModuleList(\n","          (0): T5LayerSelfAttention(\n","            (SelfAttention): T5Attention(\n","              (q): Linear(in_features=512, out_features=512, bias=False)\n","              (k): Linear(in_features=512, out_features=512, bias=False)\n","              (v): Linear(in_features=512, out_features=512, bias=False)\n","              (o): Linear(in_features=512, out_features=512, bias=False)\n","            )\n","            (layer_norm): T5LayerNorm()\n","            (dropout): Dropout(p=0.1, inplace=False)\n","          )\n","          (1): T5LayerFF(\n","            (DenseReluDense): T5DenseReluDense(\n","              (wi): Linear(in_features=512, out_features=2048, bias=False)\n","              (wo): Linear(in_features=2048, out_features=512, bias=False)\n","              (dropout): Dropout(p=0.1, inplace=False)\n","            )\n","            (layer_norm): T5LayerNorm()\n","            (dropout): Dropout(p=0.1, inplace=False)\n","          )\n","        )\n","      )\n","    )\n","    (final_layer_norm): T5LayerNorm()\n","    (dropout): Dropout(p=0.1, inplace=False)\n","  )\n","  (decoder): T5Stack(\n","    (embed_tokens): Embedding(32128, 512)\n","    (block): ModuleList(\n","      (0): T5Block(\n","        (layer): ModuleList(\n","          (0): T5LayerSelfAttention(\n","            (SelfAttention): T5Attention(\n","              (q): Linear(in_features=512, out_features=512, bias=False)\n","              (k): Linear(in_features=512, out_features=512, bias=False)\n","              (v): Linear(in_features=512, out_features=512, bias=False)\n","              (o): Linear(in_features=512, out_features=512, bias=False)\n","              (relative_attention_bias): Embedding(32, 8)\n","            )\n","            (layer_norm): T5LayerNorm()\n","            (dropout): Dropout(p=0.1, inplace=False)\n","          )\n","          (1): T5LayerCrossAttention(\n","            (EncDecAttention): T5Attention(\n","              (q): Linear(in_features=512, out_features=512, bias=False)\n","              (k): Linear(in_features=512, out_features=512, bias=False)\n","              (v): Linear(in_features=512, out_features=512, bias=False)\n","              (o): Linear(in_features=512, out_features=512, bias=False)\n","            )\n","            (layer_norm): T5LayerNorm()\n","            (dropout): Dropout(p=0.1, inplace=False)\n","          )\n","          (2): T5LayerFF(\n","            (DenseReluDense): T5DenseReluDense(\n","              (wi): Linear(in_features=512, out_features=2048, bias=False)\n","              (wo): Linear(in_features=2048, out_features=512, bias=False)\n","              (dropout): Dropout(p=0.1, inplace=False)\n","            )\n","            (layer_norm): T5LayerNorm()\n","            (dropout): Dropout(p=0.1, inplace=False)\n","          )\n","        )\n","      )\n","      (1): T5Block(\n","        (layer): ModuleList(\n","          (0): T5LayerSelfAttention(\n","            (SelfAttention): T5Attention(\n","              (q): Linear(in_features=512, out_features=512, bias=False)\n","              (k): Linear(in_features=512, out_features=512, bias=False)\n","              (v): Linear(in_features=512, out_features=512, bias=False)\n","              (o): Linear(in_features=512, out_features=512, bias=False)\n","            )\n","            (layer_norm): T5LayerNorm()\n","            (dropout): Dropout(p=0.1, inplace=False)\n","          )\n","          (1): T5LayerCrossAttention(\n","            (EncDecAttention): T5Attention(\n","              (q): Linear(in_features=512, out_features=512, bias=False)\n","              (k): Linear(in_features=512, out_features=512, bias=False)\n","              (v): Linear(in_features=512, out_features=512, bias=False)\n","              (o): Linear(in_features=512, out_features=512, bias=False)\n","            )\n","            (layer_norm): T5LayerNorm()\n","            (dropout): Dropout(p=0.1, inplace=False)\n","          )\n","          (2): T5LayerFF(\n","            (DenseReluDense): T5DenseReluDense(\n","              (wi): Linear(in_features=512, out_features=2048, bias=False)\n","              (wo): Linear(in_features=2048, out_features=512, bias=False)\n","              (dropout): Dropout(p=0.1, inplace=False)\n","            )\n","            (layer_norm): T5LayerNorm()\n","            (dropout): Dropout(p=0.1, inplace=False)\n","          )\n","        )\n","      )\n","      (2): T5Block(\n","        (layer): ModuleList(\n","          (0): T5LayerSelfAttention(\n","            (SelfAttention): T5Attention(\n","              (q): Linear(in_features=512, out_features=512, bias=False)\n","              (k): Linear(in_features=512, out_features=512, bias=False)\n","              (v): Linear(in_features=512, out_features=512, bias=False)\n","              (o): Linear(in_features=512, out_features=512, bias=False)\n","            )\n","            (layer_norm): T5LayerNorm()\n","            (dropout): Dropout(p=0.1, inplace=False)\n","          )\n","          (1): T5LayerCrossAttention(\n","            (EncDecAttention): T5Attention(\n","              (q): Linear(in_features=512, out_features=512, bias=False)\n","              (k): Linear(in_features=512, out_features=512, bias=False)\n","              (v): Linear(in_features=512, out_features=512, bias=False)\n","              (o): Linear(in_features=512, out_features=512, bias=False)\n","            )\n","            (layer_norm): T5LayerNorm()\n","            (dropout): Dropout(p=0.1, inplace=False)\n","          )\n","          (2): T5LayerFF(\n","            (DenseReluDense): T5DenseReluDense(\n","              (wi): Linear(in_features=512, out_features=2048, bias=False)\n","              (wo): Linear(in_features=2048, out_features=512, bias=False)\n","              (dropout): Dropout(p=0.1, inplace=False)\n","            )\n","            (layer_norm): T5LayerNorm()\n","            (dropout): Dropout(p=0.1, inplace=False)\n","          )\n","        )\n","      )\n","      (3): T5Block(\n","        (layer): ModuleList(\n","          (0): T5LayerSelfAttention(\n","            (SelfAttention): T5Attention(\n","              (q): Linear(in_features=512, out_features=512, bias=False)\n","              (k): Linear(in_features=512, out_features=512, bias=False)\n","              (v): Linear(in_features=512, out_features=512, bias=False)\n","              (o): Linear(in_features=512, out_features=512, bias=False)\n","            )\n","            (layer_norm): T5LayerNorm()\n","            (dropout): Dropout(p=0.1, inplace=False)\n","          )\n","          (1): T5LayerCrossAttention(\n","            (EncDecAttention): T5Attention(\n","              (q): Linear(in_features=512, out_features=512, bias=False)\n","              (k): Linear(in_features=512, out_features=512, bias=False)\n","              (v): Linear(in_features=512, out_features=512, bias=False)\n","              (o): Linear(in_features=512, out_features=512, bias=False)\n","            )\n","            (layer_norm): T5LayerNorm()\n","            (dropout): Dropout(p=0.1, inplace=False)\n","          )\n","          (2): T5LayerFF(\n","            (DenseReluDense): T5DenseReluDense(\n","              (wi): Linear(in_features=512, out_features=2048, bias=False)\n","              (wo): Linear(in_features=2048, out_features=512, bias=False)\n","              (dropout): Dropout(p=0.1, inplace=False)\n","            )\n","            (layer_norm): T5LayerNorm()\n","            (dropout): Dropout(p=0.1, inplace=False)\n","          )\n","        )\n","      )\n","      (4): T5Block(\n","        (layer): ModuleList(\n","          (0): T5LayerSelfAttention(\n","            (SelfAttention): T5Attention(\n","              (q): Linear(in_features=512, out_features=512, bias=False)\n","              (k): Linear(in_features=512, out_features=512, bias=False)\n","              (v): Linear(in_features=512, out_features=512, bias=False)\n","              (o): Linear(in_features=512, out_features=512, bias=False)\n","            )\n","            (layer_norm): T5LayerNorm()\n","            (dropout): Dropout(p=0.1, inplace=False)\n","          )\n","          (1): T5LayerCrossAttention(\n","            (EncDecAttention): T5Attention(\n","              (q): Linear(in_features=512, out_features=512, bias=False)\n","              (k): Linear(in_features=512, out_features=512, bias=False)\n","              (v): Linear(in_features=512, out_features=512, bias=False)\n","              (o): Linear(in_features=512, out_features=512, bias=False)\n","            )\n","            (layer_norm): T5LayerNorm()\n","            (dropout): Dropout(p=0.1, inplace=False)\n","          )\n","          (2): T5LayerFF(\n","            (DenseReluDense): T5DenseReluDense(\n","              (wi): Linear(in_features=512, out_features=2048, bias=False)\n","              (wo): Linear(in_features=2048, out_features=512, bias=False)\n","              (dropout): Dropout(p=0.1, inplace=False)\n","            )\n","            (layer_norm): T5LayerNorm()\n","            (dropout): Dropout(p=0.1, inplace=False)\n","          )\n","        )\n","      )\n","      (5): T5Block(\n","        (layer): ModuleList(\n","          (0): T5LayerSelfAttention(\n","            (SelfAttention): T5Attention(\n","              (q): Linear(in_features=512, out_features=512, bias=False)\n","              (k): Linear(in_features=512, out_features=512, bias=False)\n","              (v): Linear(in_features=512, out_features=512, bias=False)\n","              (o): Linear(in_features=512, out_features=512, bias=False)\n","            )\n","            (layer_norm): T5LayerNorm()\n","            (dropout): Dropout(p=0.1, inplace=False)\n","          )\n","          (1): T5LayerCrossAttention(\n","            (EncDecAttention): T5Attention(\n","              (q): Linear(in_features=512, out_features=512, bias=False)\n","              (k): Linear(in_features=512, out_features=512, bias=False)\n","              (v): Linear(in_features=512, out_features=512, bias=False)\n","              (o): Linear(in_features=512, out_features=512, bias=False)\n","            )\n","            (layer_norm): T5LayerNorm()\n","            (dropout): Dropout(p=0.1, inplace=False)\n","          )\n","          (2): T5LayerFF(\n","            (DenseReluDense): T5DenseReluDense(\n","              (wi): Linear(in_features=512, out_features=2048, bias=False)\n","              (wo): Linear(in_features=2048, out_features=512, bias=False)\n","              (dropout): Dropout(p=0.1, inplace=False)\n","            )\n","            (layer_norm): T5LayerNorm()\n","            (dropout): Dropout(p=0.1, inplace=False)\n","          )\n","        )\n","      )\n","    )\n","    (final_layer_norm): T5LayerNorm()\n","    (dropout): Dropout(p=0.1, inplace=False)\n","  )\n","  (lm_head): Linear(in_features=512, out_features=32128, bias=False)\n",")"]},"metadata":{"tags":[]},"execution_count":27}]},{"cell_type":"code","metadata":{"colab":{"base_uri":"https://localhost:8080/"},"id":"VDcvBqdgfWHN","executionInfo":{"status":"ok","timestamp":1620751076183,"user_tz":240,"elapsed":3120608,"user":{"displayName":"Lakshmi Menon","photoUrl":"","userId":"12696212601561821198"}},"outputId":"2af6ab21-
…
